…
  desc: null
  value: 128
n_epochs:
  desc: null
  value: 3
clip_range:
  desc: null
  value: <function constant_fn.<locals>.func at 0x7fc4db392d40>
clip_range_vf:
  desc: null
  value: None
normalize_advantage:
  desc: null
  value: 'True'
target_kl:
  desc: null
  value: None
lr_schedule:
  desc: null
  value: <function constant_fn.<locals>.func at 0x7fc4db392c20>
rollout_buffer:
  desc: null
  value: <stable_baselines3.common.buffers.RolloutBuffer object at 0x7fc4db33c130>
policy:
  desc: null
  value: "ActorCriticCnnPolicy(\n  (features_extractor): NatureCNN(\n    (cnn): Sequential(\n\
    \      (0): Conv2d(3, 32, kernel_size=(8, 8), stride=(4, 4))\n      (1): ReLU()\n\
    \      (2): Conv2d(32, 64, kernel_size=(4, 4), stride=(2, 2))\n      (3): ReLU()\n\
    \      (4): Conv2d(64, 64, kernel_size=(3, 3), stride=(1, 1))\n      (5): ReLU()\n\
    \      (6): Flatten(start_dim=1, end_dim=-1)\n    )\n    (linear): Sequential(\n\
    \      (0): Linear(in_features=768, out_features=512, bias=True)\n      (1): ReLU()\n\
    \    )\n  )\n  (pi_features_extractor): NatureCNN(\n    (cnn): Sequential(\n \
    \     (0): Conv2d(3, 32, kernel_size=(8, 8), stride=(4, 4))\n      (1): ReLU()\n\
    \      (2): Conv2d(32, 64, kernel_size=(4, 4), stride=(2, 2))\n      (3): ReLU()\n\
    \      (4): Conv2d(64, 64, kernel_size=(3, 3), stride=(1, 1))\n      (5): ReLU()\n\
    \      (6): Flatten(start_dim=1, end_dim=-1)\n    )\n    (linear): Sequential(\n\
    \      (0): Linear(in_features=768, out_features=512, bias=True)\n      (1): ReLU()\n\
    \    )\n  )\n  (vf_features_extractor): NatureCNN(\n    (cnn): Sequential(\n \
    \     (0): Conv2d(3, 32, kernel_size=(8, 8), stride=(4, 4))\n      (1): ReLU()\n\
    \      (2): Conv2d(32, 64, kernel_size=(4, 4), stride=(2, 2))\n      (3): ReLU()\n\
    \      (4): Conv2d(64, 64, kernel_size=(3, 3), stride=(1, 1))\n      (5): ReLU()\n\
    \      (6): Flatten(start_dim=1, end_dim=-1)\n    )\n    (linear): Sequential(\n\
    \      (0): Linear(in_features=768, out_features=512, bias=True)\n      (1): ReLU()\n\
    \    )\n  )\n  (mlp_extractor): MlpExtractor(\n    (policy_net): Sequential()\n\
    \    (value_net): Sequential()\n  )\n  (action_net): Linear(in_features=512, out_features=6,\
    \ bias=True)\n  (value_net): Linear(in_features=512, out_features=1, bias=True)\n\
    )"
_logger:
  desc: null
  value: <stable_baselines3.common.logger.Logger object at 0x7fc4db3a26b0>
